best_modedl.pt (torch, 5139 bytes, 8 tensors)

discriminator.0.weight f4 [4, 1, 5]
0.25210333 -0.018356739 0.24954729 0.3637343 0.31487975 0.17451882 0.27444488 -0.22547673
-0.015908344 0.038325224 -0.3650719 0.19258748 0.26667514 0.40073955 -0.11400991 -0.504954
0.2577057 -0.44521105 0.2785501 -0.092508145
00000000: b013 813e df60 96bc 5389 7f3e 623b ba3e
00000010: eb37 a13e 10b5 323e 0a84 8c3e 5fe3 66be
00000020: 3752 82bc e9fa 1c3d b4ea babe a735 453e
00000030: a589 883e bc2d cd3e 077e e9bd aa44 01bf
00000040: 00f2 833e b4f2 e3be 1e9e 8e3e e974 bdbd

discriminator.0.bias f4 [4]
-0.25120616 -0.49875805 0.37616143 0.38886985
00000000: 189e 80be 375d ffbe 3b98 c03e f319 c73e

discriminator.3.weight f4 [8, 4, 4]
0.318478 0.098292366 0.22806638 0.09743931 0.12275156 0.23732421 -0.0067757946 -0.20285365
-0.12852031 0.06010816 0.2045916 0.09636533 -0.015011258 -0.12824455 -0.07243594 -0.12276793
-0.22660221 -0.0676788 0.16939738 0.11024486 -0.25614676 -0.11960638 0.1363512 -0.27027118
-0.07636923 0.1548455 -0.117791645 -0.060640734 0.1904429 0.011807679 0.0593436 0.14625184
-0.12418416 -0.14370058 -0.07262335 -0.11925921 -0.29156226 -0.21133815 -0.09236674 0.030597247
-0.049197752 0.04284018 0.054246437 -0.019394422 0.031856533 -0.08448699 0.087179154 0.2187333
0.28951305 -0.21724562 -0.18534306 -0.012262837 0.18979208 0.23940508 -0.012019631 -0.1841062
0.039094567 -0.08102717 0.1957196 -0.22827367 -0.09847863 -0.2679791 -0.2335582 0.14069758
0.1878546 -0.026931237 -0.18284643 -0.094832696 -0.18743087 -0.039673652 -0.051545884 -0.20974782
0.23219664 0.23975573 0.07055482 -0.064619474 -0.24761677 0.16128111 0.21190663 0.15609401
-0.12982188 -0.14097752 -0.17840886 0.029059792 0.13374819 -0.21784754 0.05217153 -0.13398163
-0.15710224 0.2327675 0.101445474 0.11481403 -0.025068406 -0.03774792 0.005124065 -0.0061567193
0.03948501 0.08696901 0.037478104 0.09786778 -0.089426786 0.13520022 -0.19827235 0.06806309
0.18113129 -0.004180913 0.04004097 -0.1716623 0.19362316 0.3052045 -0.008127682 0.044665825
-0.10057248 -0.01928934 0.16004166 0.16144875 0.012855314 -0.11954601 0.1926196 0.02460656
-0.08760571 -0.058710515 0.29206297 0.21052963 -0.047497507 0.028164295 -0.033490375 -0.102954604
00000000: 8c0f a33e 824d c93d 3c8a 693e 438e c73d
00000010: 2b65 fb3d 1e05 733e 7c07 debb deb8 4fbe
00000020: d49a 03be f933 763d 7680 513e 305b c53d
00000030: c8f1 75bc 8a52 03be 4b59 94bd c16d fbbd
00000040: 690a 68be 2f9b 8abd 8276 2d3e 0fc8 e13d
00000050: ab25 83be 31f4 f4bd a69f 0b3e fc60 8abe
00000060: 7967 9cbd d28f 1e3e bf3c f1bd 6b62 78bd
00000070: 7703 433e ff74 413c 4612 733d 0bc3 153e
00000080: 4454 febd 3f26 13be 8dbb 94bd 2c3e f4bd
00000090: a647 95be 0769 58be c62a bdbd 14a7 fa3c
000000a0: 9583 49bd 2f79 2f3d 8331 5e3d 0de1 9ebc
000000b0: ff7b 023d 8407 adbd fc8a b23d 9ffb 5f3e
000000c0: 0e3b 943e a375 5ebe 92ca 3dbe 11ea 48bc
000000d0: db58 423e 9b26 753e fded 44bc 5686 3cbe
000000e0: a021 203d 93f1 a5bd b86a 483e 93c0 69be
000000f0: 2aaf c9bd 8e34 89be e129 6fbe 0713 103e
00000100: f55c 403e e69e dcbc 183c 3bbe a537 c2bd
00000110: e1ed 3fbe d780 22bd c721 53bd 22c8 56be
00000120: f5c4 6d3e 8782 753e 0c7f 903d 3757 84bd
00000130: 408f 7dbe e026 253e 0dfe 583e 1cd7 1f3e
00000140: 07f0 04be 695c 10be d0b0 36be cd0e ee3c
00000150: 49f5 083e 6d13 5fbe d0b1 553d 7b32 09be
00000160: 69df 20be 9b5a 6e3e a5c2 cf3d 9e23 eb3d
00000170: 425c cdbc 909d 1abd c6e7 a73b 4ebe c9bb
00000180: 09bb 213d cf1c b23d a482 193d e76e c83d
00000190: 6425 b7bd ed71 0a3e e807 4bbe a964 8b3d
000001a0: 7b7a 393e 0a00 89bb 0002 243d 3ec8 2fbe
000001b0: 2645 463e c443 9c3e f829 05bc 83f3 363d
000001c0: f2f8 cdbd ae04 9ebc f6e1 233e d252 253e
000001d0: 189f 523c 8ad4 f4bd 133e 453e b293 c93c
000001e0: 9f6a b3bd 707a 70bd 4789 953e 1495 573e
000001f0: bf8c 42bd cfb8 e63c 342d 09bd ddd9 d2bd

discriminator.3.bias f4 [8]
0.037729543 0.2357923 0.33594543 0.030062286 -0.13753413 -0.119321495 0.026556829 0.005808649
00000000: 4b8a 1a3d 8973 713e 0a01 ac3e 2f45 f63c
00000010: bfd5 0cbe d45e f4bd b58d d93c 7b56 be3b

discriminator.6.weight f4 [4, 8, 4]
0.10913682 -0.08464222 -0.15414579 -0.17825545 -0.05343216 -0.039246127 0.17537236 0.20428102
0.14249499 -0.018103449 0.21938027 0.26415065 0.046100274 -0.12188339 0.018092865 -0.19029805
0.21009557 -0.04749037 -0.07160162 0.058083273 0.12678428 -0.18957022 -0.025841545 0.045400143
0.10396849 0.06738036 0.16824134 0.15579621 -0.075662084 -0.1302146 -0.15590207 -0.054221854
0.037153196 -0.17243849 -0.17281042 -0.06814518 -0.0543017 -0.01841593 -0.03189923 -0.029500294
-0.04629618 0.050660025 0.017282497 -0.020243803 -0.017013546 -0.042848833 -0.114827074 -0.0126745645
0.16095592 0.109588854 0.056314193 0.14150876 0.03550506 0.014765635 0.16610394 0.052212957
0.12366276 0.05026198 -0.101278156 -0.02942712 -0.1581418 0.1736562 0.008920284 -0.041131515
0.007845972 0.1207404 -0.016761417 -0.010229984 0.14300974 0.06412904 0.19765343 0.040502056
0.10400703 0.1366518 0.21852756 0.09698883 0.11715858 0.08773225 -0.094649754 -0.022866674
0.017033335 -0.021082725 0.07305042 0.016901106 0.1522984 -0.009286245 0.14346354 0.10580235
0.040555134 0.053677395 0.14072806 -0.049657438 0.13993245 0.12963426 0.09930286 0.02908759
0.1283251 0.23146148 -0.072927475 0.12753561 0.09884533 0.0914055 0.0010414005 0.035654183
-0.014703275 -0.07457798 0.016880687 0.17356955 -0.038654536 -0.11756606 0.0020156878 0.22691903
-0.16278104 0.12772194 0.061697837 0.0742784 -0.058795378 -0.122153334 -0.13900137 0.07570407
0.11003842 0.02295414 0.12934783 -0.095170714 0.23573224 0.21325646 0.121364 -0.14327341
00000000: 2083 df3d e658 adbd 65d8 1dbe 9988 36be
00000010: aedb 5abd 8cc0 20bd d094 333e 0b2f 513e
00000020: 35ea 113e af4d 94bc 39a5 603e c13e 873e
00000030: a4d3 3c3d 009e f9bd 7d37 943c 7edd 42be
00000040: 4b23 573e 4385 42bd dfa3 92bd bae8 6d3d
00000050: bdd3 013e b21e 42be a6b1 d3bc 80f5 393d
00000060: 6fed d43d b7fe 893d 7547 2c3e 0b89 1f3e
00000070: b9f4 9abd fa56 05be cba4 1fbe bc17 5ebd
00000080: f32d 183d b793 30be 37f5 30be b38f 8bbd
00000090: 766b 5ebd 01dd 96bc c4a8 02bd 9aaa f1bc
000000a0: 10a1 3dbd e380 4f3d 0694 8d3c 55d6 a5bc
000000b0: fe5f 8bbc 4282 2fbd 752a ebbd faa8 4fbc
000000c0: a1d1 243e 1f70 e03d b6a9 663d ace7 103e
000000d0: c16d 113d 90eb 713c 2717 2a3e 41dd 553d
000000e0: e742 fd3d 82df 4d3d ec6a cfbd 2511 f1bc
000000f0: edef 21be eed2 313e 6226 123c 8579 28bd
00000100: 648c 003c be46 f73d 3d4f 89bc aa9b 27bc
00000110: 2571 123e 1656 833d a965 4a3e 7ce5 253d
00000120: a301 d53d 73ee 0b3e b0c5 5f3e 14a2 c63d
00000130: d6f0 ef3d f7ac b33d bbd7 c1bd e452 bbbc
00000140: 7e89 8b3c aeb5 acbc 759b 953d 3074 8a3c
00000150: 1df4 1b3e 5625 18bc 1be8 123e e7ae d83d
00000160: 241d 263d d4dc 5b3d 041b 103e 9965 4bbd
00000170: 744a 0f3e d8be 043e 4c5f cb3d 1949 ee3c
00000180: a867 033e 3d04 6d3e 005b 95bd b298 023e
00000190: 6c6f ca3d cf32 bb3d 9a7f 883a 1f0a 123d
000001a0: 01e6 70bc 57bc 98bd 5e49 8a3c 37bc 313e
000001b0: 3854 1ebd 79c6 f0bd a119 043b 765d 683e
000001c0: 13b0 26be 8ac9 023e dfb6 7c3d 461f 983d
000001d0: 6cd3 70bd 872b fabd 6056 0ebe bc0a 9b3d
000001e0: d35b e13d 520a bc3c c273 043e dde8 c2bd
000001f0: cb63 713e e75f 5a3e b08d f83d 44b6 12be

discriminator.6.bias f4 [4]
0.11080815 0.04812615 0.09765323 0.056922954
00000000: 62ef e23d ed1f 453d 6bfe c73d 0b28 693d

discriminator.9.weight f4 [1, 4, 4]
-0.044788685 0.33116814 0.32869038 0.07233422 0.015378636 0.048161678 0.1739649 0.044773564
0.3053078 0.24294387 0.23116499 0.3175935 0.14121705 0.056523807 -0.08679343 0.109364145
00000000: 5774 37bd df8e a93e 1b4a a83e f723 943d
00000010: adf6 7b3c 2e45 453d db23 323e 7c64 373d
00000020: 4e51 9c3e 47c6 783e 84b6 6c3e 9d9b a23e
00000030: 349b 103e 8285 673d c1c0 b1bd 4ffa df3d

layer_out.0.weight f4 [1, 6]
-0.53613925 -0.16561559 -0.08008084 0.6811228 -0.028720811 0.005215387
00000000: 6c40 09bf 2297 29be 6c01 a4bd 105e 2e3f
00000010: e847 ebbc d6e5 aa3b
